…
ling2D((2, 2)))\nmodel.add(layers.Conv2D(64, (3, 3), activation = 'relu'))</code></pre><p>Запросим сводку модели:</p><pre><code class="language-python">model.summary()</code></pre><p>Пока числа не очень информативны; в ходе дальнейших преобразований мы увидим, как меняется число параметров каждого их 6 слоев.</p><pre><code class="language-python">Model: "sequential"\n_________________________________________________________________\nLayer (type)                 Output Shape              Param #   \n=================================================================\nconv2d (Conv2D)              (None, 30, 30, 32)        896       \n_________________________________________________________________\nmax_pooling2d (MaxPooling2D) (None, 15, 15, 32)        0         \n_________________________________________________________________\nconv2d_1 (Conv2D)            (None, 13, 13, 64)        18496     \n_________________________________________________________________\nmax_pooling2d_1 (MaxPooling2 (None, 6, 6, 64)          0         \n_________________________________________________________________\nconv2d_2 (Conv2D)            (None, 4, 4, 64)          36928     \n=================================================================\nTotal params: 56,320\nTrainable params: 56,320\nNon-trainable params: 0</code></pre><p>Теперь преобразуем набор пикселей изображения размером 32 на 32 в двумерный массив, выстроим их как бы в ряд. В этом нам поможет метод <code>Flatten()</code>, не принимающий аргументов. К тому моменту как мы выстроили все пиксели изображен
…
tivation='relu'))\nmodel.add(layers.Dense(10))</code></pre><p>Мы добавили полносвязные слои с таким же методом активации, снова изучим сводку.</p><pre><code class="language-python">model.summary()</code></pre><p>Слои, добавленные на предыдущем этапе, остались неизменными; добавились уплощенный и плотные слои.</p><pre><code class="language-python">Model: "sequential"\n_________________________________________________________________\nLayer (type)                 Output Shape              Param #   \n=================================================================\nconv2d (Conv2D)              (None, 30, 30, 32)        896       \n_________________________________________________________________\nmax_pooling2d (MaxPooling2D) (None, 15, 15, 32)        0         \n_________________________________________________________________\nconv2d_1 (Conv2D)            (None, 13, 13, 64)        18496     \n_________________________________________________________________\nmax_pooling2d_1 (MaxPooling2 (None, 6, 6, 64)          0         \n_________________________________________________________________\nconv2d_2 (Conv2D)            (None, 4, 4, 64)          36928     \n_________________________________________________________________\nflatten (Flatten)            (None, 1024)              0         \n_________________________________________________________________\ndense (Dense)                (None, 64)                65600     \n_________________________________________________________________\ndense_1 (Dense)              (None, 10)                650       \n=================================================================\nTotal params: 122,570\nTrainable params: 122,570\nNon-trainable params: 0\n_________________________________________________________________</code></pre><p>Количество параметров увеличилось. Соберем модель, для этого нам понадобится функция-оптимизатор и функция потери. Первое: поскольку нейросеть инициализируется со случа
…
